app/src/main/assets/iris.tflite (tflite, 3040 bytes, 6 tensors)

arith.constant f4 [3, 16]
00000000: d059 403e c005 7bbe fefb dfbd d1f7 54bf
00000010: 2010 74bd 40bd 553e 1104 3d3f fc07 863e
00000020: 57c2 54be 9e1e e53e 8d06 c33e 79ce f7be
00000030: 1ad7 3cbf f08a e13d 54d1 713c f99c 86be
00000040: 2f16 d53e 4087 d6be 0e06 cd3e b650 e03e
00000050: 841f 063e 48cc 04bf eda1 84bc 925f 64be
00000060: 2916 143e 78ac 9e3e d180 933e 184b ae3d
00000070: 433b 27be 9083 c73e 4b1c 12be b257 74bd
00000080: 3dbf f83e aa42 f43e 74ba b5be f584 ed3e
00000090: 304f 333e 826a 06bf a7ca 6ebe 7259 f73e
000000a0: f088 a4be 292d 82be 690b c23e b01c 803d
000000b0: b9d4 283f 00aa a3bd 276c 1fbf 70a7 103f
0.18784261 -0.24513912 -0.109367356 -0.8319064 -0.05958569 0.20872974 0.7383433 0.26177967
-0.2077726 0.44749922 0.38090935 -0.48399714 -0.7376572 0.11012828 0.01475938 -0.26291636
0.41618487 -0.41900063 0.40043682 0.43811578 0.1309796 -0.5187421 -0.016190493 -0.22302082
0.14461578 0.30990958 0.28809217 0.08510417 -0.163312 0.38967562 -0.14268605 -0.059653945
0.48583403 0.4770711 -0.35493815 0.463905 0.17510676 -0.5250627 -0.23319493 0.4831043
-0.32135725 -0.2542508 0.3789933 0.06255472 0.6594959 -0.07991409 -0.622744 0.5650549

arith.constant1 f4 [16, 8]
00000000: 8801 36be 9cdd 75be 6af1 983d 34c1 f2be
00000010: cf5b e9be 72fd 053e 8a15 c63e fb04 e2be
00000020: e852 303e 8048 c6bd 0073 4cbc d8e1 7cbe
00000030: 94fb 963e c061 91bc d808 403e bc86 9dbe
00000040: d858 1ebe c076 25bd 9735 4fbd 307c cebd
00000050: eb16 b53d 4e3a 45bd 80d9 35be fc43 173d
00000060: 60b0 4ebd 9d78 cfbe e0bd 133f df2b 54be
00000070: b528 583f 3a02 64be 0c8c 2abe 5db2 ec3e
00000080: d44a ed3e 1098 19be d409 d0be a89b d9be
00000090: 7cd2 c1be c894 debe 1047 39be 40dc a3bd
000000a0: c039 b7be 0093 a33c f0a4 a7be 308f aa3e
000000b0: 7834 a0be e045 c0be 046c b53e 009e 12bb
000000c0: a07b 4a3d 3191 68be b0fc aabd 6be9 253f
000000d0: 5709 4bbf b4a1 463e 6cdd c13e efb8 703e
000000e0: a438 8b3e d019 a33d bc31 8d3e 9067 c03d
000000f0: 6803 e6be b09a 6ebe 5498 d7be 2844 a4be
00000100: 9caf 98be 005c d13e a7cb 95be fef5 98be
00000110: 1ca6 3f3e f3fa 90be 6877 9abe 9846 b03e
00000120: ecc8 aabe bcf2 efbe 9852 f0be 30c9 aa3e
00000130: ecea c6be 40e6 c6bc d870 38be 00c0 fc3c
00000140: 9c3f 9a3e 5c1b 40be e534 083e 137c cabe
00000150: c05c fdbe ca23 623e 4836 0cbc ef69 8c3e
00000160: c05e 843c 3806 7a3e 9024 083e 6036 113e
00000170: 88bf 713e b89d efbe a8c3 7abe d892 2b3e
00000180: 80eb cdbe 741b e63d 7c95 143e 0aa2 2abf
00000190: 203d 193f 9889 efbd 595d 41be 5d2b 273e
000001a0: a8b7 ea3e 6b02 eabe 5fc3 693e e2b9 bbbe
000001b0: b127 533e 98f2 ebbe 06ed 263e 3956 5c3e
000001c0: 60a1 9e3d a803 403f d51d 8cbe 710f 633e
000001d0: 7bab d5bd 8133 8e3e f48d da3e e8c5 b73e
000001e0: e802 e83e 7fd6 c5be 0d51 523d 6c10 e5be
000001f0: cd11 f23c a699 b03e bd98 09bf 52ba 0e3d
-0.17774022 -0.24010319 0.07467921 -0.47413027 -0.45577857 0.13084963 0.38688308 -0.44144425
0.17219126 -0.09681797 -0.01247859 -0.24695528 0.29488814 -0.017746806 0.18753374 -0.30766857
-0.15463579 -0.040396452 -0.050588217 -0.10082281 0.08842262 -0.048151307 -0.17758751 0.03693007
-0.050461173 -0.40521708 0.577116 -0.2071986 0.84437114 -0.22266474 -0.16654986 0.4622983
0.46346152 -0.14999413 -0.40632498 -0.4250157 -0.378559 -0.43472886 -0.18093514 -0.08000994
-0.35786247 0.019967556 -0.32743025 0.33312368 -0.3129003 -0.3755331 0.35433972 -0.0022372007
0.049434304 -0.22711636 -0.083489776 0.6480929 -0.79311126 0.19397622 0.37864244 0.23508047
0.2719165 0.07963908 0.27577007 0.09394753 -0.44924474 -0.23301196 -0.42108405 -0.3208325
-0.2982148 0.40890503 -0.29256937 -0.29875177 0.1871571 -0.2831646 -0.30169225 0.3442886
-0.33356416 -0.4686488 -0.46938014 0.3335662 -0.38851106 -0.024279714 -0.18011796 0.030853271
0.30126655 -0.18760437 0.13301428 -0.39547786 -0.49484825 0.22083965 -0.0085578635 0.2742457
0.016158462 0.24416435 0.13295197 0.14180899 0.2360822 -0.46800017 -0.244887 0.16755235
-0.40218735 0.11235705 0.14510149 -0.666535 0.59858894 -0.11696166 -0.18883266 0.16325136
0.45843244 -0.4570497 0.22828434 -0.36665255 0.2062061 -0.46083522 0.16301355 0.21517266
0.077456236 0.7500558 -0.2736651 0.22173859 -0.10433098 0.2777367 0.42686427 0.35893178
0.45314717 -0.3864021 0.051346827 -0.4473909 0.029549504 0.34492224 -0.53748685 0.034845658

arith.constant2 f4 [3]
00000000: 9810 f43d f88a a73d fc0d 2bbe
0.119172275 0.08180803 -0.16704553

sequential_1/dense_1_2/BiasAdd/ReadVariableOp f4 [16]
00000000: 1943 8bbd 0000 0000 917b c4bc 7ec6 04bd
00000010: 0000 0000 0000 0000 7d1d df3d 0000 0000
00000020: 113c 8dbd 0000 0000 fd81 e2bd 0000 0000
00000030: 75f5 a5bd 6234 85bd b66d 4c3e 34a2 04be
-0.06799907 0.0 -0.023984702 -0.03241586 0.0 0.0 0.10894296 0.0
-0.068962224 0.0 -0.110599495 0.0 -0.08103458 -0.06504132 0.19963726 -0.129525

sequential_1/dense_1/BiasAdd/ReadVariableOp f4 [8]
00000000: 0000 0000 06c5 253e b8be e8bd 3281 773e
00000010: ccf1 aebd e6af 353d d9c9 383e ba38 a93d
0.0 0.1618844 -0.11364502 0.24170378 -0.08542213 0.044357203 0.18045749 0.08262773

sequential_1/dense_1/MatMul f4 [8, 4]
00000000: 4281 04bf 745f 693e f44c 403e b838 f7bd
00000010: 4df2 0d3f ea9c acbe ba51 14be f679 15bf
00000020: bd54 383e c28a 6b3b ecf8 d33e 11f4 473f
00000030: f029 8b3e 25a1 893e 0833 f3be 7c61 553c
00000040: b3a5 a7be c5de 253e dc1d 663f 78e5 8ebd
00000050: 352c 1f3f 6256 c73e f8e4 0d3e 9e0e b93e
00000060: a419 db3e 8f0e 323f 1301 13bf 8099 18bf
00000070: fedc 823e a34b b43e 93b9 413f 4fef a3be
-0.5175973 0.22790319 0.18779355 -0.12071365 0.55447847 -0.33713466 -0.14484301 -0.5838922
0.18001075 0.003594086 0.4140085 0.7810679 0.27180433 0.26880756 -0.4749987 0.01302373
-0.32743606 0.16198261 0.8988931 -0.069773614 0.6217683 0.38933092 0.13856876 0.36143965
0.42793 0.69553465 -0.57423514 -0.5960922 0.2555923 0.35213956 0.7567379 -0.32018515
